app/src/main/ml/model.tflite (tflite, 3204 bytes, 6 tensors)

arith.constant f4 [2, 10]
0	0x3f96e856	1.1789653
1	0xbf93f09d	-1.1557804
2	0x3cb1a476	0.021684866
3	0x3ed460cf	0.4148011
4	0x3f33c6e7	0.70225376
5	0xbb84e66d	-0.004055789
6	0xbf41d341	-0.7571297
7	0xbf4f9201	-0.8108216
8	0xbe2c5201	-0.16828157
9	0x3d016c18	0.031597227
10	0xbec3e21c	-0.38258445
11	0x3f2ad34e	0.66728675
12	0x3e823681	0.25432208
13	0x3d57c0b3	0.052674007
14	0xbf0cbac7	-0.549725
15	0xbee25956	-0.44208783
16	0xbe138d83	-0.14409451
17	0x3f05bbcc	0.5223968
18	0xbe9b7f72	-0.3037067
19	0x3f29fe39	0.6640354

arith.constant1 f4 [10, 20]
0	0x3e1eea28	0.15519011
1	0xbe976294	-0.29567397
2	0xbf38d139	-0.7219425
3	0x3d491e58	0.049101204
4	0xbe0259a6	-0.1272951
5	0xbee56d83	-0.44810113
6	0xbd1fa411	-0.038974825
7	0xc02ab0cf	-2.6670415
8	0xbf081216	-0.53152597
9	0xbe478272	-0.19483355
10	0xbed6ef69	-0.4197953
11	0xbedf6ffb	-0.43640122
12	0x3f00f20d	0.5036934
13	0xbeaf995a	-0.34296685
14	0xbe91713b	-0.284067
15	0xbfeeb7cb	-1.8649839
16	0x39497800	0.00019213557
17	0xbf1be1c8	-0.6089139
18	0xc01295a6	-2.2903838
19	0xbed40fb7	-0.4141824
20	0xbe5c4c75	-0.21513541
21	0xbf3765f7	-0.7163996
22	0x3e851184	0.25989926
23	0x3ede6c3d	0.43441954
24	0xbf46c13a	-0.7763859
25	0x3ec106a3	0.37700376
26	0x3ef3ceeb	0.47618803
27	0xbfd1a5f6	-1.6378772
28	0xbf162411	-0.5864878
29	0x3d8f1a00	0.06987381
30	0xbe91e784	-0.28496945
31	0xbda40e9a	-0.080105975
32	0x3ea7b570	0.32755613
33	0x40eca46c	7.395071
34	0x3e88fca6	0.26755255
35	0xbef6cd41	-0.4820347
36	0xbe4483fa	-0.1919097
37	0x3f27faa9	0.6561685
38	0xc00a3543	-2.1595008
39	0xbf9a7580	-1.2067108
40	0xbdb13bf0	-0.0865401
41	0xbebd5a80	-0.3698311
42	0xbc3b3680	-0.011426568
43	0x3daed4d9	0.08536691
44	0xbf7de68c	-0.9917991
45	0xbf5e0663	-0.86728495
46	0xbe0b8c1e	-0.13627669
47	0xbeb52720	-0.35381413
48	0xbf972ed4	-1.1811166
49	0xbd330a40	-0.043710947
50	0xbe8da816	-0.27667302
51	0x3dacea41	0.08443118
52	0xbf75ba33	-0.9598724
53	0xbfac47b1	-1.3459378
54	0xbd4ece80	-0.050489902
55	0xbfa5016f	-1.2891062
56	0x3ea5166c	0.3224367
57	0xbebed608	-0.37272668
58	0xbe9bc64f	-0.30424735
59	0xbed59a51	-0.41719297
60	0x3e666640	0.22499943
61	0x3c59654e	0.013268782
62	0xbe182d8d	-0.14861126
63	0x3ed52a12	0.4163366
64	0xc0064a59	-2.0982878
65	0xbebeb51d	-0.37247553
66	0xbcf9d6bd	-0.030497903
67	0xbf348c41	-0.7052651
68	0xbfd2a6e7	-1.6457185
69	0xbd91c9c3	-0.07118561
70	0x3ef1b049	0.47204807
71	0xbdb404a8	-0.087899506
72	0xbfed6da8	-1.854909
73	0xc013f8a0	-2.3120499
74	0xbf06a70b	-0.5259864
75	0xbfa7e128	-1.3115587
76	0xbdcff090	-0.101533055
77	0xbe8a7098	-0.27039027
78	0xbe76431a	-0.24049035
79	0x3fa4f958	1.2888594
80	0xbe3180ac	-0.1733424
81	0x3e6d560b	0.23177354
82	0xbf5e9f4d	-0.86961824
83	0x3e887ef6	0.26659364
84	0xc038460e	-2.8792758
85	0xbe1bade6	-0.15203056
86	0xbede4462	-0.43411547
87	0xbe97e587	-0.29667303
88	0xbfe12df4	-1.7592149
89	0xbdc6f369	-0.097143956
90	0x3eb35a37	0.35029766
91	0xbd65c03e	-0.05609154
92	0xc0218069	-2.5234625
93	0xc05d4c4a	-3.4577813
94	0xbed43c42	-0.41452223
95	0xc06c72ce	-3.6945071
96	0xbe3e833e	-0.18604752
97	0x3ea8ef4d	0.32995072
98	0x3de3c7b9	0.111220784
99	0x3f8409df	1.0315512
100	0xbeabe90f	-0.33576247
101	0x3e0a130a	0.13483825
102	0x3e77726c	0.24164742
103	0xbd6ca2ef	-0.057772573
104	0x3e2d6fed	0.16937228
105	0xbf3ab187	-0.72927135
106	0x3e97b793	0.29632244
107	0xbda4a667	-0.08039551
108	0xbf881555	-1.063151
109	0x3d405c18	0.046962827
110	0x3cf4936e	0.029855456
111	0xbe0eb7c2	-0.13937286
112	0xbf0512ea	-0.51981986
113	0x3f1207df	0.5704326
114	0x3ed5c789	0.41753796
115	0xbb4e223f	-0.0031453518
116	0xbe1053b2	-0.14094427
117	0xbe657ea3	-0.2241159
118	0xbf1ca186	-0.61183965
119	0xbebc1f10	-0.3674245
120	0x3eb43658	0.3519771
121	0xbea8a86b	-0.32940993
122	0xbf3ba736	-0.7330202
123	0xbf4f87bc	-0.8106649
124	0xbe4fbeb2	-0.20287588
125	0xbe56ae08	-0.20964825
126	0xbeee0913	-0.46491298
127	0xbf22f8c6	-0.6366085
128	0xbf1c945d	-0.61163884
129	0xbf002598	-0.50057364
130	0xbe8af90b	-0.2714313
131	0xbeb57133	-0.35437927
132	0xbf48e025	-0.7846702
133	0xbf21d3e0	-0.6321392
134	0xbef2eb91	-0.47445348
135	0xbf13eb2f	-0.57780737
136	0x3e6a9928	0.22909987
137	0xbf143326	-0.57890546
138	0xbf126e96	-0.5719999
139	0xbf24b4ca	-0.6433836
140	0xbd6ba0a0	-0.05752623
141	0x3e82d4d0	0.25552988
142	0x3e36949c	0.17830127
143	0x3e92a198	0.2863891
144	0xbfb0e950	-1.3821201
145	0x3ec4158d	0.38297692
146	0xbe1b0b4d	-0.1514103
147	0xc06b9555	-3.6809895
148	0xbf7db1ce	-0.99099433
149	0x3e19417c	0.14966387
150	0xbf1257fa	-0.5716549
151	0x3f160616	0.58603036
152	0x401cc20c	2.4493437
153	0xbebec1f4	-0.3725735
154	0x3df6792c	0.120348305
155	0x403b38f5	2.9253514
156	0x3ea84f32	0.3287292
157	0xbe270fdb	-0.16314642
158	0x3d5b50b0	0.053543746
159	0x3e5a792e	0.21335289
160	0x3e74a554	0.23891193
161	0xbeb59834	-0.35467684
162	0xbe98f000	-0.29870605
163	0xbea1efd6	-0.31628293
164	0x3e57934a	0.2105228
165	0x3c78a5ad	0.015176219
166	0x3b670fdd	0.0035257258
167	0xbfcebf6d	-1.6152169
168	0xbdfbf1ee	-0.12302004
169	0xbeed2b15	-0.4632193
170	0x3e8797f9	0.26483133
171	0xbddbe447	-0.107369
172	0xbf1fd6fe	-0.6243743
173	0xbf633524	-0.8875296
174	0xbf241a48	-0.641026
175	0xbf9fe7b6	-1.2492588
176	0xbeaa92a6	-0.3331501
177	0x3e301983	0.17197232
178	0xbf913d27	-1.1346787
179	0xbe9179db	-0.2841328
180	0x3e2cb61c	0.16866344
181	0x3ef1f23c	0.47255123
182	0xbf115181	-0.5676499
183	0xbee5a71b	-0.44854054
184	0xbd1493c2	-0.036273725
185	0xbe26afbb	-0.16277973
186	0x3e88dbd7	0.26730224
187	0xbe68c5fb	-0.22731774
188	0xbeaa2401	-0.33230594
189	0xbe4bbe9a	-0.19896927
190	0xbf3e4c39	-0.74335057
191	0xbe8fa625	-0.28056446
192	0xbf037edc	-0.5136545
193	0xbf85335b	-1.0406297
194	0xbe96bedf	-0.29442498
195	0xbef13b01	-0.4711533
196	0xbd905370	-0.070471644
197	0x3ec1d50c	0.37857854
198	0xbe7751f9	-0.24152364
199	0x3ccf6216	0.025315326

sequential/dense_1/BiasAdd/ReadVariableOp f4 [10]
0	0xbf83ff4f	-1.0312289
1	0x3f8107a9	1.0080463
2	0xbe105433	-0.1409462
3	0x3e3f9b77	0.18711649
4	0x3ff8f310	1.9449177
5	0xbee657f8	-0.4498899
6	0xbf02a519	-0.5103317
7	0xbfd24ca4	-1.6429639
8	0xbf193c39	-0.5985752
9	0xbccf4d06	-0.025305282

sequential/dense/BiasAdd/ReadVariableOp f4 [20]
0	0x00000000	0.0
1	0xbf28a62e	-0.6587857
2	0xbf02a0a0	-0.51026344
3	0x3d065156	0.03279241
4	0xbfd38c77	-1.6527241
5	0xbee1713b	-0.440317
6	0xbe46ee16	-0.1942676
7	0x3f0dc1d6	0.55373895
8	0xbfe306cc	-1.7736449
9	0xbedbe7c4	-0.4295026
10	0xbfc751af	-1.5571803
11	0xbf44aed7	-0.76829284
12	0x3ede9c82	0.4347878
13	0x3f2c3c2a	0.67279303
14	0xbf02a952	-0.5103961
15	0xc04cb1ce	-3.1983523
16	0x00000000	0.0
17	0xbf40b567	-0.752768
18	0xbf7140a2	-0.94239247
19	0xbf7f2f0b	-0.99681157

sequential/y_pred/BiasAdd/ReadVariableOp f4 [2]
0	0x3dd13240	0.102146626
1	0xbdd13227	-0.10214644

sequential/dense/MatMul f4 [20, 3]
0	0xbb0a7a00	-0.0021129847
1	0xbd907440	-0.07053423
2	0xbde46388	-0.111517966
3	0x3ddd14cf	0.107949845
4	0xbf352b1b	-0.707689
5	0xbe65d48c	-0.22444361
6	0xbe3bc1af	-0.18335603
7	0xbefa6508	-0.48905206
8	0xbf700f51	-0.9377337
9	0xbeaffddd	-0.3437337
10	0x3ee8fc5e	0.4550504
11	0xbffa136d	-1.9537178
12	0x3fdf9032	1.746588
13	0xbfab1299	-1.336505
14	0xbf85b25d	-1.0445057
15	0xbed0fd1a	-0.408181
16	0xbf45445b	-0.7705743
17	0xbfb0e716	-1.3820522
18	0xbe63b93b	-0.22238629
19	0xbf198c86	-0.59980047
20	0xbf21d206	-0.63211095
21	0x40a7e4ba	5.2466707
22	0xbfc097a8	-1.5046282
23	0x401cc907	2.4497697
24	0x3f449a67	0.767981
25	0xbe93c2cc	-0.28859556
26	0xbf3581f4	-0.7090142
27	0xbdde0f91	-0.10842813
28	0x3ab204e7	0.0013581783
29	0xbf4231ad	-0.7585705
30	0xbee8012d	-0.45313397
31	0xbf9cd361	-1.2252008
32	0x3df97e01	0.121822365
33	0xbe8d4a02	-0.27595526
34	0xbf030611	-0.5118113
35	0xbe849d30	-0.25901175
36	0xc02d12d9	-2.7042754
37	0xc0d1aa19	-6.552014
38	0xc043ea37	-3.0611703
39	0x4087bd58	4.2418633
40	0xc153ec33	-13.245166
41	0xc1078bae	-8.4716015
42	0xbd4b7ee4	-0.04968156
43	0xbf6c1ea1	-0.92234236
44	0xbf48e50b	-0.7847449
45	0xbfa42d77	-1.2826375
46	0x4056222c	3.3458357
47	0xbe40b739	-0.18819894
48	0x3bded700	0.0068005323
49	0xbea6bd45	-0.32566276
50	0xbe4e3b5c	-0.20139831
51	0x3db38995	0.08766476
52	0xbe542457	-0.20716988
53	0xbeb8e535	-0.3611237
54	0xbf9d7d6f	-1.2303904
55	0xbfa0074f	-1.250223
56	0x402c6d51	2.6941721
57	0xbdc8a3e8	-0.09796888
58	0xbf393436	-0.7234529
59	0xbf9d868e	-1.2306688
